fireModel/best_model (1).pth (torch, 43065 bytes, 5 tensors)

fc.0.weight f4 [128, 12]
000000 d1 a8 8e be 79 b4 3a 3e 04 2a ad 3e ae f9 73 3d
       -0.27863172 0.18232907 0.33821118 0.059564285
000010 0e df 3a be 84 5f d3 3c a6 1b a0 3d c6 0c cb 3d
       -0.18249151 0.025802381 0.078177735 0.09914546
000020 73 05 e4 bd 81 7d 57 be bb ba 2b 3e fa 9f 5d be
       -0.11133852 -0.2104397 0.16770451 -0.21643057
000030 2c 60 2e be 4e 2b 42 bb e6 38 00 3e 9a 49 2a be
       -0.17028874 -0.0029627862 0.12521705 -0.1662964
000040 a2 c0 03 3c 2e d5 48 be 7d 68 c2 bd 76 4d bb 3c
       0.008041533 -0.19612572 -0.09492586 0.022864085
000050 34 23 bc 3c 2a 08 5d be 0f 65 b0 3b 8b 14 d8 bd
       0.022966005 -0.21585146 0.005383141 -0.10550793
000060 37 53 9d 3e 95 a7 38 bd 28 fa 0c be 48 8f bf 3d
       0.3072755 -0.045081694 -0.13767302 0.093535006
000070 6e 20 db 3d a1 06 19 be 81 23 85 bb e9 4e a3 3d
       0.10699545 -0.14943935 -0.0040630703 0.07974035
000080 4e 39 02 be 18 62 88 3d 7d b4 82 bd fa f0 39 bd
       -0.12717173 0.06659335 -0.06382082 -0.04539583
000090 2e 36 92 3e b0 1c 17 be 77 03 72 be 86 bd 2c ba
       0.2855696 -0.14757037 -0.23634134 -0.00065895205
0000a0 aa f0 81 3e b3 96 07 be 20 c6 4e bd 67 ef 29 bd
       0.25378925 -0.13241081 -0.050481915 -0.041488077
0000b0 c4 30 ee bd 1b 05 15 be 69 2a 95 bd a2 67 14 be
       -0.11630395 -0.14552729 -0.0728348 -0.14492658
0000c0 e6 69 1a be 1c e3 3d 3b 9c 2f 28 3e c5 a6 25 bc
       -0.1507946 0.002897448 0.16424412 -0.010110562
0000d0 bf 4e 8c 3c dd 74 54 be 7b 57 94 bd 9b 02 f6 3d
       0.017127393 -0.20747705 -0.07243248 0.12012216
0000e0 f1 4d 69 3d ea 47 d5 bd ff 1d 00 3e 69 5f e6 bd
       0.056959096 -0.10414107 0.12511443 -0.11248667
0000f0 5d 24 c6 bc 2e 3d 21 3d ab c1 5d be a3 10 ac 3d
       -0.024187261 0.039364986 -0.2165591 0.08401611
000100 71 41 f3 3d 42 7b bf bd 6c 9c 8d 3e 94 be ae 3d
       0.11877716 -0.093496814 0.27658403 0.08532444
000110 c0 36 72 be 29 54 51 3d c3 9e 18 be e7 98 f3 3d
       -0.23653698 0.051105652 -0.14904313 0.11894398
000120 b3 57 7b be 20 f0 be bd d8 68 91 3e ef af 78 bd
       -0.24545173 -0.09323144 0.28400302 -0.06071466
000130 37 ac ef bd bc 0d 60 bd 25 67 23 bd ae f3 1b 3e
       -0.11702769 -0.054700598 -0.03989329 0.15229675
000140 50 cc 19 bd e7 35 8c bd 0a 06 d4 bc 03 a3 e2 3c
       -0.037548363 -0.068462186 -0.025881786 0.02766562
000150 de 2e c8 3d 47 98 d9 3d 51 7e cb bd 2b 31 06 be
       0.09774564 0.10624748 -0.09936202 -0.13104694
000160 2c 3e 40 3e 11 ce cc be 22 31 13 be d2 6d ec bd
       0.18773717 -0.40000966 -0.14374211 -0.11544384
000170 db e5 ce 3d 1c 3b 43 be 17 cb 6a 3d 80 a2 a6 bd
       0.10102435 -0.19065517 0.057322588 -0.08136463
000180 62 44 13 be df be 7b 3e dd f9 8f 3d 2c 34 40 bd
       -0.14381555 0.2458453 0.070300795 -0.046924755
000190 0f 8d 27 be 1f 12 39 be 26 42 5e bd c1 b7 a7 bd
       -0.16362403 -0.18073319 -0.054262303 -0.08189345
0001a0 fd 5d d6 bd 45 66 7d 3e 59 98 24 3e 4e 12 85 3e
       -0.104671456 0.24746044 0.16073741 0.25990528
0001b0 0a 54 9b be 09 d9 64 bd b0 7d 47 3e 23 27 c8 3d
       -0.30337554 -0.055871043 0.1948154 0.0977309
0001c0 c3 d2 81 bc 23 93 84 3d cc a8 2c 3c 58 68 84 bd
       -0.01584757 0.064733766 0.010538291 -0.064652145
0001d0 c2 ca 67 3e 0b e1 75 be 64 ed 14 be b4 44 0b 3e
       0.2263594 -0.24011628 -0.14543682 0.13600427
0001e0 82 c3 31 3e 46 00 3a 3d f7 ab b7 3d fd aa 1c 3e
       0.17359737 0.045410417 0.089683466 0.15299602
0001f0 4f 12 8b be 18 cf 81 bd 54 c6 c2 be 69 fa ba bc
       -0.27162406 -0.06338328 -0.38041937 -0.022824483
000200 52 af 35 3e 34 f6 1d 3e 3c 4b 84 3b 9c a1 11 be
       0.1774266 0.1542595 0.004037289 -0.14221805
000210 a2 f8 3f 3e 6c b2 20 be e3 ce 2e be 00 2d 2c be
       0.1874719 -0.15693063 -0.17071109 -0.16814041
000220 ba 89 3f 3e 7b d5 55 3e fe 37 3b be 7a c5 05 3e
       0.18704882 0.20882218 -0.18283078 0.13063613
000230 d3 8d 1f 3d 43 57 69 be 80 23 23 be c7 33 6b be
       0.038953613 -0.22787194 -0.15931511 -0.2296897
000240 11 ac 21 bd 88 60 f5 bc 23 22 9c bc bc 43 65 bd
       -0.039470736 -0.029953256 -0.019059246 -0.0559728
000250 1d d6 8d bd 26 d1 87 be 65 3a 81 bc c2 fb 18 be
       -0.069256045 -0.26526755 -0.015774915 -0.14939788
000260 e9 79 f8 3d 8c b4 0f 3d 27 69 84 3d db 4f 73 3e
       0.121326275 0.035084292 0.06465369 0.23760931
000270 4f 0a dd bc 3f 41 8d 3d 7d f2 d3 bc 73 ff 04 bd
       -0.026982455 0.0689721 -0.025872463 -0.032470178
000280 60 9b 37 be 9a 5a 1b 3c 54 3c fc 3d f1 7e dc 3d
       -0.17930365 0.00948205 0.12316194 0.107664
000290 ba 59 76 3e 2c ff dd 3d 03 bc a8 bc 8e e0 7e be
       0.24057665 0.10839686 -0.020597463 -0.24890348
0002a0 40 33 50 3e 09 83 0b be 93 df bf 3d 04 1f 01 be
       0.2033205 -0.13624205 0.09368815 -0.12609488
0002b0 ea 3c ca 3c cc 9f 81 3e 21 1e 5e 3d 55 13 3a 3e
       0.02468725 0.25317228 0.054227952 0.18171437
0002c0 97 14 80 be 58 83 dd 3d 20 4b e2 bb 6e dd 3a be
       -0.2501571 0.108160675 -0.0069059283 -0.18248531
0002d0 4a bb d0 bd 71 c7 30 3e b3 96 19 3d 8c e7 74 3e
       -0.101919726 0.17263581 0.037497234 0.23916453
0002e0 99 9c d3 bd 7b 9d 78 be 0d b3 d3 3c d0 cd 58 3d
       -0.10332603 -0.24278824 0.025842214 0.052930653
0002f0 e1 e2 0a be 63 63 6b 3e f0 08 d2 bd bd 07 47 bc
       -0.1356311 0.22987132 -0.10255611 -0.012147841
000300 3b bd 14 3e d4 b0 31 be 53 b0 9b bd a2 24 da 3d
       0.1452531 -0.17352611 -0.076019906 0.106515184
000310 9f d5 d0 bd 25 0b 9a 3e 27 8f ab 3b 31 7e 80 3e
       -0.10196995 0.30086628 0.005235571 0.25096276
000320 15 79 67 3d 5b a2 2f 3e ba e6 0e 3e d8 3a 84 be
       0.056511957 0.17151777 0.13955203 -0.25826144
000330 0a 7d 9e 3d 6e af 8e 3e 4d e1 d0 bd 4a 7c 56 3c
       0.07738693 0.27868217 -0.10199223 0.013091156
000340 88 db 41 be 03 b7 aa 3d df f1 eb bc 62 c6 53 be
       -0.18931401 0.08335688 -0.028801857 -0.20681146
000350 75 f6 0b be a2 77 8e 3e e8 99 38 be 47 6c 85 bd
       -0.13668235 0.27825648 -0.1802746 -0.06514793
000360 a5 2f 3d be 63 30 37 be b7 4d 80 3e 51 f7 30 3e
       -0.18475206 -0.17889552 0.25059292 0.17281844
000370 9e 4c 09 3e 9f 1b 54 bd 94 86 02 bd 36 fe 26 3e
       0.13408133 -0.051784154 -0.031866625 0.16307911
000380 5c 4d 2c be 0a 78 90 be cc cb 5a 3d 0f 3a ad bd
       -0.16826385 -0.28216583 0.053417012 -0.084583394
000390 68 5a 41 be 38 8a be bd f6 b5 7b be b7 a3 96 bd
       -0.18882143 -0.09303707 -0.24581131 -0.07355445
0003a0 ba fa e4 3d 6a 68 5f 3e 16 1c ed 3d d4 07 0b bd
       0.11180635 0.21817175 0.115776226 -0.033943012
0003b0 38 fd 44 3e b7 e3 95 bd eb 4d d0 bd ac 9a f9 bc
       0.1923722 -0.07318824 -0.10171112 -0.030469261
0003c0 2b b7 4d be bf 94 5b be 8f a3 5a 3c 1c 08 66 be
       -0.20089404 -0.21443461 0.0133446595 -0.22464031
0003d0 7b 4b 81 be 75 4a 62 3d 8a e3 dd bd 59 58 29 3d
       -0.252529 0.05524679 -0.10834415 0.04134402
0003e0 59 bc f7 3a fd 74 89 bd 76 66 70 be bc 73 bf 3d
       0.0018900736 -0.06711767 -0.23476586 0.093482465
0003f0 06 1d 0a 3d 86 18 0b be e0 71 ec bd f2 ba a8 bc
       0.033719085 -0.13583574 -0.115451574 -0.020596955

fc.0.bias f4 [128]
000000 d4 f5 d3 bd 71 8e ac be 58 2d 34 bd fe cb 16 be
       -0.10349622 -0.33702424 -0.043988556 -0.14726254
000010 96 cc 4f 3e bc 73 9b be f9 db 1e 3e 71 61 d5 bc
       0.20292887 -0.30361736 0.155136 -0.02604744
000020 c5 8b f5 3d 71 8a 0b 3d c5 8b 43 be 3d d4 8a be
       0.119895495 0.034067575 -0.19096287 -0.2711505
000030 6e b0 5d 3e 1e f4 a3 be 59 98 13 be 09 b9 af be
       0.21649334 -0.32022184 -0.14413585 -0.34320858
000040 2e ca 55 bd db 41 d6 3d be 3e 0f be 40 57 ed bd
       -0.052194767 0.1046178 -0.13988778 -0.11588907
000050 b3 62 28 be 64 5c 3c 3d d8 9f 8e be 36 05 63 be
       -0.16443901 0.045986548 -0.27856326 -0.22169957
000060 44 84 0b 3e 26 28 3e be 7e 74 8d be 38 64 8a be
       0.13624674 -0.18570003 -0.2762794 -0.27029586
000070 5c c3 59 be 68 21 4b bd 23 d7 12 3e dd ea e3 be
       -0.2126593 -0.049592406 0.1433988 -0.44515124
000080 4c 1e ae 3c 50 29 d3 bb 78 cb 2f be 8f 22 8e be
       0.021254681 -0.006444134 -0.17167461 -0.2776074
000090 62 16 58 be ac af 98 bd 9f 5f 1f be bf d3 e0 3d
       -0.21102288 -0.07455382 -0.1556382 0.10977887
0000a0 6a 66 81 be 83 91 3b 3e 9c a3 ce 3d 91 5d 47 3e
       -0.25273448 0.18317227 0.100898 0.19469287
0000b0 1f 1c ac be 86 c6 48 3e 7f f9 94 3d 9b a6 4d 3e
       -0.33615205 0.1960698 0.0727415 0.20083086
0000c0 fd ea fa 3d ed fd 20 be 1e 69 01 be d5 11 f6 bd
       0.12251852 -0.15721865 -0.12637755 -0.1201512
0000d0 0a 8c 12 3e ee e9 ab be d0 46 fb bd 76 1c 6e be
       0.14311233 -0.33576912 -0.12269366 -0.23253044
0000e0 f3 c4 11 be 63 a6 92 3d ec b6 01 bd a7 72 88 be
       -0.14235286 0.07160642 -0.03166859 -0.26649973
0000f0 de c1 d1 3d f4 7e aa 3d 11 f3 e8 bd 8d 7a 9f bd
       0.10242055 0.08324996 -0.11374486 -0.077870466
000100 8c e1 eb bd 4b 46 8a 3d 7a b9 3e 3d 3f c5 85 bd
       -0.11517629 0.067516886 0.046563603 -0.06531762
000110 8c 1a 0d bd 3b 7f cc 3d d3 f4 c5 bc 6a f9 55 bc
       -0.034449145 0.09985205 -0.024164593 -0.013059953
000120 55 44 e0 bd ac 05 52 3d 4d b4 55 3e a4 cd 23 3e
       -0.10950533 0.05127494 0.2086956 0.15996414
000130 2d dc dd be 80 c8 6d 3e 76 78 9f bd be 4c 53 be
       -0.43332043 0.23221016 -0.07786648 -0.20634744
000140 64 d5 e3 bd dc 0e be be d0 15 19 3e af f7 98 3d
       -0.111246854 -0.37120712 0.14949727 0.07469117
000150 d9 a9 93 3d 7a 2f 91 be 4f 51 8a be a0 f8 8b be
       0.0721013 -0.28356534 -0.2701516 -0.27338123
000160 03 2c e6 bd 60 40 5f bd 23 a6 71 be e3 99 3a be
       -0.11238863 -0.054504752 -0.23598532 -0.18222766
000170 3f 21 9d be 44 25 f9 bc 3a d6 fd b9 35 d4 d3 3d
       -0.30689427 -0.030413277 -0.00048415532 0.1034321
000180 75 41 a9 be 37 65 99 be 9a af 35 3e 54 10 0d 3e
       -0.33057752 -0.29960033 0.17742768 0.1377576
000190 43 bb 97 be fd f6 d7 3d 2a bb 54 3e dd 3e 37 3d
       -0.29635057 0.10545156 0.20774522 0.044737685
0001a0 0b 71 63 3e 6d dc 3c be 7f 7e b2 bd dd bd 32 3e
       0.22211091 -0.18443461 -0.087155335 0.1745524
0001b0 73 61 2f 3e 92 14 61 be 7b b5 b7 bd 48 cc 45 bc
       0.17127018 -0.21980503 -0.089701615 -0.01207263
0001c0 fd 42 89 3e 7a 9e 6c 3e c5 5f 86 3d 06 76 73 be
       0.2680892 0.23107329 0.06561235 -0.23775491
0001d0 35 00 77 be 36 98 9f be f6 2b e7 3d 68 c2 a3 3d
       -0.24121173 -0.31170815 0.11287682 0.079960644
0001e0 bd 45 40 3d 4c ff fd 3d ef b1 c9 bd 8f eb 02 3d
       0.046941508 0.1240221 -0.09848391 0.031962927
0001f0 04 26 c8 3d 1f 88 35 be ad 01 23 3e 22 56 9a be
       0.09772876 -0.17727707 0.15918608 -0.3014384

fc.3.weight f4 [64, 128]
000000 89 77 90 3c 7f c5 7e bd c9 1c b7 3b aa 35 26 3d
       0.017635124 -0.062200066 0.0055881483 0.04057852
000010 f6 27 ea 3c b1 5d 52 bc d1 f6 a0 bd e2 66 91 3a
       0.028583508 -0.012839721 -0.078595765 0.0011093284
000020 f1 76 60 3d 59 a8 d0 bd e0 eb 17 3d fe cd 79 bc
       0.05480093 -0.1018836 0.037090182 -0.015246866
000030 f5 74 ae 3c 4c a7 9d 3c 6a 80 56 3c e3 1e 6d bd
       0.021296004 0.019244812 0.01309214 -0.057890784
000040 ba e3 cc 3d 2b 51 28 3d 6d 15 3a bd 09 a6 07 bc
       0.10004373 0.041093033 -0.04543059 -0.008279332
000050 6f 49 94 39 98 63 92 3b bb 45 6a 3c f2 30 91 bd
       0.00028283472 0.004467439 0.014298852 -0.07089414
000060 9a bc 43 bd e3 4a 09 bc 16 ab 58 3b 4b 33 fe bd
       -0.047787286 -0.008379671 0.003306096 -0.12412127
000070 8e f5 8f bd 6f 58 25 bd 38 8b 76 bd c0 d2 7c 3d
       -0.07029258 -0.04036754 -0.060191363 0.061724424
000080 3e f9 d3 bc 70 8f 69 3d a2 77 10 3d 08 26 4f 3c
       -0.025875684 0.05702156 0.03527034 0.012643345
000090 bb 82 c3 bc d1 8f 0f 3b 39 65 20 3d be d6 25 bd
       -0.023866048 0.002190579 0.039159033 -0.040487997
0000a0 8f 0b 57 3d 28 a4 d1 3c 3a 8f 60 3a 79 32 dd bc
       0.052501258 0.025590971 0.00085662643 -0.027001606
0000b0 c8 95 bc bc 66 a1 a2 3b d4 64 cd bc 93 e6 87 bd
       -0.02302064 0.004963088 -0.025072493 -0.066357754
0000c0 3b da 56 3d ca 05 09 bd 58 66 4c bb 0e 21 1b bc
       0.052454215 -0.033452787 -0.0031188931 -0.00946833
0000d0 a9 2c 16 bd 30 4f 81 bd a5 a7 93 bc f7 ea 48 3d
       -0.036663685 -0.06313932 -0.018024275 0.049052205
0000e0 61 67 cf bb 56 90 0d ba 0f 2a 81 3c 56 4c a4 3b
       -0.0063294624 -0.0005400231 0.015767125 0.0050139828
0000f0 7a 54 a0 3c 13 85 e5 3b fc 89 9e bd ad 9a 03 3c
       0.019571532 0.007004389 -0.07741162 0.008032483
000100 2b 61 de bd 88 0b 01 bd 6c f8 89 3d 07 0c 6e 3c
       -0.10858377 -0.031505138 0.06736836 0.014529235
000110 f6 ca 4d 3d b6 61 02 bd 85 58 1f bd d8 87 45 3c
       0.050242387 -0.031831466 -0.03890278 0.012056313
000120 c7 7f 8e 3c fc 72 03 3d 66 ed 55 3b 63 84 5b 3d
       0.017394913 0.03209208 0.0032642721 0.05359305
000130 99 e8 25 3d c6 b8 14 bd 69 04 34 bd b4 32 4a bd
       0.040505026 -0.036309026 -0.04394952 -0.04936476
000140 2b 60 de bc 5c ba 29 bd fa ab 2d 3d a9 1e f9 3b
       -0.027145466 -0.04143749 0.042400338 0.007602532
000150 e8 08 a5 bd 43 cc 39 bd 62 a8 32 bd 2a 29 1a bd
       -0.08058339 -0.045360815 -0.043617614 -0.037636913
000160 7a 56 8c bd 5d 5f fb bc d5 14 32 3d e9 47 39 bd
       -0.068524316 -0.030685121 0.0434769 -0.045234594
000170 a5 14 17 3d 72 85 fd 3c d4 95 e0 bc ed 20 2b 3c
       0.036884923 0.03094742 -0.027415194 0.010444862
000180 7e 0b 13 bd 0c 3d a2 bc e6 b0 2e bd 59 08 b7 3c
       -0.03589963 -0.0198045 -0.042649172 0.022342848
000190 10 5b 0c bd 05 1b 1a bd 18 f1 18 bd f3 11 21 3d
       -0.03426653 -0.037623424 -0.0373393 0.03932376
0001a0 5b 78 d0 bc 8a fc 90 3d ac 7b 39 bd aa 03 92 3c
       -0.025448015 0.07079418 -0.04528396 0.017824013
0001b0 3a 66 12 3d 89 9b b0 bd ab 6e 58 3d f6 22 86 bd
       0.035742022 -0.08623416 0.052839916 -0.06549637
0001c0 79 4a 15 3d 48 8c 79 3c e3 d5 55 3d df 59 7f 3d
       0.036447976 0.0152312 0.05220593 0.062341567
0001d0 6b 9e f9 3a e6 9a 15 3d e8 5b 85 bd 6d 78 d0 bc
       0.0019044405 0.036524676 -0.0651167 -0.025448048
0001e0 da df fb bc 92 c7 cc 3c 2d e7 9d bd 1d ec 76 bc
       -0.03074639 0.024997506 -0.07710109 -0.015070942
0001f0 06 37 b4 bc 84 c5 93 bd e4 ff 26 3d b5 97 8d 3b
       -0.021998893 -0.072154075 0.04077138 0.0043210634
000200 11 50 99 bd ac 74 95 bd 60 75 85 bc 5f a1 88 bc
       -0.074859746 -0.07297644 -0.01629132 -0.01667851
000210 e8 ea 83 bd d8 8b 17 bd c6 7b 98 3b 83 e7 95 3d
       -0.06441289 -0.0369986 0.004653427 0.07319548
000220 d8 ac 11 3d 0e b2 1b bd af fb 18 bd dc 6a 2d bd
       0.035565227 -0.038011603 -0.0373494 -0.042338237
000230 b7 03 7f bd 80 a5 c4 3c ff 76 58 3c 5a 46 9d bd
       -0.062259402 0.024004698 0.013211965 -0.07679434
000240 67 f9 44 bd 4f b5 33 bc c4 9e 7d bd 9f 0e 18 bd
       -0.04808941 -0.01096852 -0.06191899 -0.03712332
000250 bc ae ae bc b9 7c f5 bc 2f c2 de bb 7f 7a 95 ba
       -0.021323554 -0.029966699 -0.006798051 -0.0011404305
000260 b1 ad 86 bd 02 d3 0c 3d c1 83 ef bc ec 02 d3 bc
       -0.06576098 0.03438092 -0.02923763 -0.02575823
000270 2d c1 56 3d c7 7c 7d 3d ae e4 73 bd 6f 6b 7c bd
       0.05243032 0.061886575 -0.059544258 -0.061625894
000280 c3 f3 1d bd a3 05 9d 3c 54 b7 3e 3d 11 4c 73 bd
       -0.038562547 0.019167727 0.046561554 -0.059398714
000290 71 93 96 bc a6 42 8f 3d 77 f6 26 bd 6e 57 86 3d
       -0.018380852 0.06995134 -0.04076239 0.06559645
0002a0 17 67 38 bd 9e 9c be bd ac 35 39 bd e1 d9 97 3d
       -0.04502019 -0.09307216 -0.0452172 0.07414604
0002b0 94 db 90 bd f1 90 b2 bd b8 c1 b3 3c 94 86 52 3b
       -0.07073131 -0.08719052 0.021942958 0.0032123672
0002c0 e4 01 c1 bd c8 a0 8e 3c c5 e4 66 bc 2f 45 82 bd
       -0.09424189 0.01741065 -0.014092629 -0.06360852
0002d0 62 08 4d bd e9 f5 8a bd 6a 3a d3 bc fa 44 1e bd
       -0.050056823 -0.06785185 -0.02578469 -0.03864
0002e0 4d 70 59 bd 50 4e 03 38 fc bf db bc fa 70 22 3d
       -0.053085614 3.1305768e-05 -0.026824944 0.039658524
0002f0 da 9d f5 3c ee ec 10 bd 5d d4 f6 bc 28 e3 19 3d
       0.029982496 -0.035382204 -0.03013056 0.03757015
000300 f6 fd 5f bd 3a 9f b5 b9 72 21 bd bd e9 32 8e 3d
       -0.054685555 -0.00034641643 -0.09234895 0.06943304
000310 18 38 a0 bc a0 0d 87 3d bf 3d be bd 85 a0 3a bd
       -0.019557998 0.06594396 -0.09289121 -0.04556324
000320 9c 13 9a 3d 6c 60 31 bd 70 b5 9e bd 5f 7b 11 bd
       0.075232714 -0.043304846 -0.0774945 -0.035518046
000330 00 e2 1b bd 86 2f 06 3d 49 bf 9b bd fb 26 b5 bd
       -0.038057327 0.032760166 -0.07604844 -0.088453256
000340 b7 22 35 3d 24 2c aa 3a 13 94 a4 3a f5 a3 b9 bc
       0.04422256 0.0012983126 0.0012556337 -0.022661189
000350 5f 6d 25 bd bf 9b 38 bd 1a 7c 8f bd 02 84 56 38
       -0.040387508 -0.045070406 -0.07006092 5.1144518e-05
000360 76 54 f2 3c ef 10 04 3d dd 04 9b 3d 09 ed 0f bd
       0.02958129 0.03224271 0.07569287 -0.035138164
000370 29 a0 5c 3c c2 0f 67 3c bf fc 91 bb 90 61 b7 bd
       0.0134659195 0.014102878 -0.0044551785 -0.089541554
000380 0e 5f d4 bc b0 9c 76 bc 69 f5 af bd 35 4e 35 bd
       -0.025924232 -0.015052006 -0.0859173 -0.044264037
000390 93 6f 6e 39 86 e8 b2 bd b5 83 c4 bc c8 05 0a 3d
       0.00022739013 -0.087357566 -0.023988584 0.03369692
0003a0 51 f6 a4 bc f9 09 66 3b 4c b1 82 bd 11 4c be bd
       -0.020136984 0.003510116 -0.06381473 -0.09291852
0003b0 3c 22 b2 bd 54 0f 71 bc 6e d1 52 3b ea f9 cb 3c
       -0.08697936 -0.014713127 0.0032168287 0.024899442
0003c0 80 12 91 3c c4 e8 43 bd ae e1 52 bd 51 93 af bd
       0.017709017 -0.047829404 -0.051484756 -0.0857302
0003d0 e1 43 07 bd 63 71 93 bd d0 2c 45 bd 7d a5 8f bb
       -0.03302372 -0.07199361 -0.04813844 -0.0043837414
0003e0 c0 05 c2 bc 16 ac 3d bd 8e d9 40 ba c0 9a b7 bd
       -0.023684382 -0.046306692 -0.0007356637 -0.08965063
0003f0 6d e3 5a bc f4 bf 20 3d d5 d6 d3 bc cb e2 c5 39
       -0.013359887 0.03924556 -0.025859276 0.00037743742

fc.3.bias f4 [64]
000000 43 93 89 3d ee 0e 50 bc 4b a5 3e bb 2d fc 16 bd
       0.06717541 -0.012698872 -0.0029090222 -0.036861587
000010 5f cd 71 3d b8 73 ae 3d c2 b9 b4 3d b8 8a 8f 3d
       0.059033748 0.08518165 0.08824493 0.070088804
000020 6d 80 72 3d da 6c 94 3d df d8 6d 3b ef cd 12 3e
       0.059204508 0.07247324 0.0036292595 0.1433637
000030 bb 49 f5 3b b4 9e 26 3c e2 41 98 3d 79 1a 06 3e
       0.007485596 0.010169674 0.07434441 0.13096036
000040 56 23 27 3d 11 a5 a3 3d fe 85 e6 3d 3b 1b dc 3d
       0.040805183 0.07990468 0.11256026 0.10747381
000050 fe d1 25 be dc d3 5b 3d e0 46 41 3e 77 e7 10 3e
       -0.16193387 0.05366884 0.18874693 0.14150797
000060 83 15 3d 3d 5d d3 3f 3d 27 ec 50 bc 7f b1 98 3d
       0.046163093 0.04683243 -0.012751616 0.0745573
000070 84 de 32 3e c3 79 ef 3c fa 09 92 3e f1 16 20 3e
       0.17467695 0.029232865 0.28523237 0.15633751
000080 84 5a 53 3e 2e 0f 44 3e 3d 20 08 3e 84 d8 9a bd
       0.20639998 0.19146416 0.13293548 -0.07560828
000090 a7 8b 90 3d af 20 c5 3d f2 0f ab 3d 14 35 87 3e
       0.070578866 0.096253745 0.08352651 0.26407683
0000a0 15 ad 36 3e c4 35 e4 3c e2 cd aa bc cf 0f bc 3d
       0.17839463 0.027857669 -0.020850126 0.09182703
0000b0 b1 53 f9 3d 74 7d 1f 3d d0 a8 24 3e 5b 2c 9e bd
       0.12174166 0.038938 0.16080022 -0.07723304
0000c0 67 04 be bd 86 28 3d 3e a6 f9 f9 3d 2a a1 4a 3c
       -0.092781834 0.1847249 0.1220582 0.012367526
0000d0 93 6c ad bb 4a 2d 08 3c cf d7 b9 bc e0 ea 6f 3d
       -0.005292484 0.008311579 -0.022685913 0.058573604
0000e0 ed 43 0d 3e 0f 56 98 3d 36 82 73 b8 13 33 2a 3e
       0.13795443 0.074382894 -5.8056983e-05 0.16621046
0000f0 9c 5b 30 3e cd 20 b3 3d 6b c4 71 3e fa 35 61 bd
       0.17222446 0.08746491 0.23610084 -0.054983117

fc.6.weight f4 [1, 64]
000000 4d 56 69 3d 2e 8a 85 bc 95 d6 6c bc 20 7e 94 bc
       0.05696707 -0.01630124 -0.014455457 -0.018126547
000010 16 fd 01 3d a1 a9 ed 3c 4d 8b 88 bd 50 f1 dc 3c
       0.031735502 0.02901155 -0.066671945 0.026970536
000020 ee ee 05 bd ae 67 8b 3c 30 3f a2 bc f3 88 cc 3c
       -0.032698564 0.017017212 -0.01980552 0.024967646
000030 d4 8c d0 bc 3f 19 ec 3c 20 61 86 bc 0a 4f c4 3c
       -0.025457777 0.028820632 -0.016403735 0.02396347
000040 5e 7c 8e bc 14 5a 32 3d 67 97 25 3d d7 76 6e 3d
       -0.017393287 0.043542936 0.04042759 0.058218803
000050 d5 bc 80 bc f8 7d a0 bc 01 5b f5 3c c0 d7 42 3d
       -0.015715042 -0.019591317 0.02995062 0.047569036
000060 e6 27 c8 3c da 9e e1 bc 74 23 c1 bc 91 83 ad bc
       0.024433088 -0.027541567 -0.023576476 -0.0211809
000070 53 48 c6 3c 41 99 80 bc 33 96 aa 3c e5 4d 91 3c
       0.024204409 -0.015698077 0.020823574 0.017737338
000080 85 0b fb 3c d2 57 0e 3d cc 88 a6 3c 21 cb 73 bc
       0.030645141 0.03475172 0.020328902 -0.014879973
000090 ff 16 c5 3c 66 3a 51 3d 55 e9 95 bc 91 f6 bc 3c
       0.024058817 0.051081084 -0.018299738 0.02306679
0000a0 73 64 1c 3d 25 ec fc bc ab 80 60 bc 9f 60 ae 3c
       0.038181733 -0.030874321 -0.013702552 0.021286307
0000b0 47 20 43 3d d4 f3 b4 bc 51 00 a1 3c db 70 cc bc
       0.047638204 -0.022088923 0.019653471 -0.024956157
0000c0 55 4f b4 bc 82 e3 30 3d 97 35 c9 3c ab 58 8e bc
       -0.022010485 0.04318572 0.024561686 -0.017376265
0000d0 71 07 c9 3b cf b0 72 bc e8 23 a1 bd c4 e7 92 bc
       0.0061349203 -0.014812662 -0.07868177 -0.01793278
0000e0 fa 12 00 3d 22 47 11 3d ff 50 13 bd 19 db a2 3c
       0.031268097 0.03546823 -0.035965916 0.019879865
0000f0 47 a4 ec 3c da 54 eb 3c a2 e0 bd 3c e5 16 a5 bc
       0.028886927 0.028726984 0.023178402 -0.020152519
